src/ros1/navigation_runner/scripts/ckpts/1navrl_checkpoint.pt (torch, 723925 bytes, 31 tensors)

feature_extractor.module.0.module.0.weight f4 [4, 1, 5, 3]
000000 c1 26 aa bf 23 22 6f bf 15 5a 0a bf 4c c1 11 3f
       -1.3293077 -0.93411463 -0.54043704 0.5693557
000010 58 6b 00 3e 7c 91 71 be ad d8 e8 3a 4d b0 0a bf
       0.12540948 -0.23590654 0.001776477 -0.54175264
000020 9f 3b 6c bf c4 23 5d 3e 4d 35 0c bf b4 e3 ec 3d
       -0.92278475 0.21595675 -0.5476883 0.115668684
000030 bd 9f d4 bd a6 3d 1d bf e3 85 75 3e 25 b1 a5 bd
       -0.1038203 -0.61422193 0.23976855 -0.08090428
000040 80 e1 03 3e f3 d1 4f bd 26 71 a4 bf 9f 0c e9 3e
       0.1287899 -0.050737333 -1.284703 0.45517442
000050 90 ab 13 be af ae ce c1 46 0e ed 3d 14 6a 27 bf
       -0.14420915 -25.835295 0.11574988 -0.6539624
000060 93 3e c0 c0 0c 34 75 3e 57 5b 35 bf 5a 0d 64 bf
       -6.0076385 0.23945636 -0.708425 -0.8908287
000070 2b 2f 33 3f 23 9f c4 ba c8 55 b5 bd 23 6e 73 bd
       0.6999385 -0.001500104 -0.08854252 -0.059431206
000080 f3 e7 98 bc 58 4b e1 bd 9c 4f e4 be e7 fb b0 be
       -0.01866529 -0.11000699 -0.44591987 -0.34567186
000090 1f 84 d4 3e c2 34 7d 3f 5a 3f 0f 3f eb 5d 5f bf
       0.4150705 0.9890863 0.5595604 -0.8725268
0000a0 a9 59 12 3f 54 e6 37 3e 88 20 61 bf 43 5a ef 3e
       0.5716806 0.17958957 -0.87940264 0.46748552
0000b0 83 ea f3 3e de 00 a3 be 71 1a 9e bd 07 82 24 be
       0.47639856 -0.318366 -0.07719887 -0.16065226
0000c0 fb 9b 0b 3f 1f 44 66 3e 74 ad 48 bf ee 40 b1 3f
       0.5453488 0.22486924 -0.7838967 1.384794
0000d0 94 50 3f 3f 5b 9d 6d 3e 0f e9 b0 be 27 b7 bd be
       0.7473233 0.23204558 -0.3455281 -0.37053797
0000e0 64 5e 2c bf f9 35 c9 bc 57 e0 b5 3d 05 3b c4 be
       -0.6733153 -0.024561869 0.0888068 -0.38326278

feature_extractor.module.0.module.0.bias f4 [4]
000000 9e dc 67 bf 18 0e 49 3e 74 a9 37 c0 27 7a 15 c0
       -0.9057101 0.19634283 -2.8697176 -2.3355806

feature_extractor.module.0.module.2.weight f4 [16, 4, 5, 3]
000000 aa 96 c6 bd 32 51 cd 3d 7f a9 e4 be 79 2b b8 3d
       -0.09696706 0.100252524 -0.44660565 0.08992667
000010 ab 24 39 3f 23 31 cd 3e c2 1d df be 08 0f 73 be
       0.72321576 0.4007655 -0.4357739 -0.23736203
000020 d4 1d 07 bf 63 67 57 3f b5 b6 05 3f 1a 44 a1 bc
       -0.5277989 0.8414213 0.52231914 -0.019685794
000030 55 7d 4c 3f c0 35 a0 3f b3 3b 47 3f e1 66 7a be
       0.7987874 1.2516403 0.7782547 -0.24453308
000040 87 1f 90 bd 4f 89 32 be 87 2d a9 be 27 5f f9 3e
       -0.07037263 -0.17435192 -0.33042547 0.48705408
000050 31 cf 0e 3f 10 41 bb bf e2 9f 5e bf 44 73 0d 3f
       0.557849 -1.462923 -0.8696271 0.55254006
000060 33 5e 00 c0 1b cd 25 be 53 63 9d 3f ba 98 b1 be
       -2.0057495 -0.16191523 1.2295936 -0.34686834
000070 d3 27 fa be a0 09 40 3f 2f 1d 77 3f c9 a6 bd 3c
       -0.48858508 0.75014687 0.96528906 0.023150818
000080 56 be 6d 3f b2 3c 71 bf 9a b2 95 bf b5 e7 1c bf
       0.92868555 -0.9423324 -1.169513 -0.61291057
000090 30 ee 34 3f 5d 11 96 bf b9 c6 c9 be 51 24 1a be
       0.70675945 -1.1724049 -0.39409426 -0.15052916
0000a0 94 6b bf bf 9d 83 41 bf eb 52 23 be 5c c6 25 bf
       -1.4954705 -0.7559145 -0.159496 -0.647558
0000b0 96 2d 90 3e e8 ba 45 3f 00 77 26 be 70 97 d9 3d
       0.2815978 0.7723832 -0.16256332 0.106245875
0000c0 2b 8a 7a 3e 55 72 36 bf ba 87 1e bf a4 d9 59 3f
       0.2446677 -0.71268207 -0.6192585 0.8509772
0000d0 c4 d7 86 bf 3d 73 c2 bf c5 6f e3 3f 9f 6a 8c be
       -1.0534596 -1.5191418 1.7768484 -0.27425095
0000e0 c6 b7 df bf c5 30 71 be 55 c0 c2 be d1 20 7e be
       -1.7477958 -0.2355376 -0.38037363 -0.24817206
0000f0 e4 5c 2c 3f a7 c3 0f be 65 90 79 be 57 f5 be 3e
       0.6732924 -0.14039479 -0.24371488 0.37296554
000100 28 08 2e be 1f f2 16 bf a6 49 19 3d dc 07 96 be
       -0.16995299 -0.589632 0.037423752 -0.2930287
000110 65 73 a6 be 28 5b 99 bb d6 bb 20 3e 46 79 89 3e
       -0.32509914 -0.004680056 0.15696654 0.26850337
000120 20 d0 d5 3f 9d bb f1 3f 44 4f 86 3f 01 c5 32 bf
       1.670414 1.888538 1.049294 -0.69831854
000130 3e dd 80 3e 13 fe e7 bd 87 6b cc 3f 42 d9 db bd
       0.25168794 -0.11327758 1.5970315 -0.10734798
000140 37 da a5 bf 96 a4 43 be 86 41 2d bf a1 c3 b8 be
       -1.2957219 -0.19105753 -0.67678106 -0.36086753
000150 c0 89 09 be d6 fa a8 be e7 c0 6d bf 3c 89 bf 3e
       -0.13431454 -0.33003873 -0.9287247 0.3740939
000160 89 99 fe 3e 64 c5 f2 3f be ae 4e 3f 7d 2e 29 3f
       0.49726513 1.8966489 0.80735385 0.6608656
000170 3f a3 f5 be 99 1d 0d 3f 20 ca 95 3f 9c f5 6a be
       -0.4797611 0.5512329 1.1702309 -0.22945255
000180 af a0 b9 3e 8a b1 a4 be 5f cb 9e bf e3 d9 6a 3f
       0.36255404 -0.32166702 -1.2405814 0.9173872
000190 e9 e4 be 3f 8f cc 76 3f 0c ce 65 be 6b 7a da 3c
       1.4913608 0.9640588 -0.22441882 0.026669702
0001a0 f4 41 52 be 56 36 d8 be d0 eb 02 bd a9 48 21 bd
       -0.20532972 -0.42228955 -0.03196317 -0.039375935
0001b0 9a 37 5b be 1f 7b 33 bd 10 9e 10 3f ef 04 bb bf
       -0.21407929 -0.04381859 0.56491184 -1.4610881
0001c0 ca b8 02 c0 92 58 03 c0 76 2f 4a 3f da 18 a8 3f
       -2.0425286 -2.052281 0.7897867 1.3132584
0001d0 fb 49 b3 3f 8b 57 a1 3f ef 8f c9 3e 41 49 13 bf
       1.4006952 1.2604841 0.39367625 -0.5753365
0001e0 28 42 d3 3f 0f d8 63 3f ba 80 fe bc e8 7b c6 3f
       1.6504564 0.89001554 -0.031067241 1.5506563
0001f0 04 be 2c 3f 66 3e 7f bc 92 9d 62 3f 38 34 70 3f
       0.6747744 -0.015578842 0.88521683 0.9382968
000200 8a b1 d8 3e 9a fb b0 3f b6 98 f8 3f c5 75 4c 3f
       0.42322952 1.3826783 1.9421604 0.798672
000210 a6 a2 b7 3f 9b 0c ed 3f d5 9f 92 3f e7 3b f0 3f
       1.4346511 1.8519472 1.1455027 1.8768281
000220 2a a1 8b 3f d1 b6 88 be 27 14 2d 3f b7 30 26 40
       1.0908558 -0.26701978 0.67608875 2.5967233
000230 69 f7 c8 3f 32 fe 02 3f 85 cf 04 40 0a 2b 9c 3f
       1.5700504 0.5116912 2.075166 1.2200634
000240 2b cd bb 3d fc fc db 3f 7b 77 95 3f 90 e6 76 bc
       0.09169992 1.718658 1.1677088 -0.015069619
000250 0d 9d 5f 3f 6b c0 ac 3f e5 43 ed 3f d6 d9 cd 3e
       0.87349015 1.3496221 1.8536345 0.40205258
000260 0c dc 5f 3e b5 c5 ff 3f c7 e5 f9 3e 0f b4 b3 3d
       0.21861285 1.998221 0.4880812 0.08774578
000270 18 61 de 3f ce 55 aa 3f ba 25 ba 3e 11 2d e1 3e
       1.7373381 1.3307436 0.36356908 0.43979695
000280 21 1a 0a 3e 43 7e 99 bf 36 18 3e bf a3 db 9e 3d
       0.1348653 -1.1991657 -0.7425569 0.07756736
000290 fe e9 bc bd f2 39 bc 3d 38 9c 96 3f bc c7 aa be
       -0.09224318 0.0919074 1.1766424 -0.3335551
0002a0 0e 92 a3 be 66 fd 30 3f bb 1b 55 be d2 74 fa 3f
       -0.31947368 0.69136655 -0.2081136 1.9566901
0002b0 65 6d ea 3f 74 f9 ac 3f 0d 8c 62 3e 91 02 a5 3f
       1.8314635 1.3513627 0.22123738 1.2891408
0002c0 cf 2e 07 3f 1d ff a5 3e 06 48 09 3f 94 eb b3 be
       0.528058 0.32421198 0.53625524 -0.3514067
0002d0 9a 37 94 3e 35 cf b9 be 4d 91 c2 be d7 e7 a3 bd
       0.2894867 -0.362909 -0.3800148 -0.08003204
0002e0 17 d4 96 3d c3 7e ff 3e 24 9c d9 3e 64 c4 65 be
       0.07364672 0.499014 0.42501938 -0.22438198
0002f0 8d d8 8c bf f3 3e f0 3f c5 63 f3 3e 80 b0 e3 3d
       -1.1003586 1.876921 0.47537056 0.11117649
000300 7e 3d 12 3e 76 e8 13 3e 47 87 23 3f 04 f0 81 bf
       0.1428127 0.14444146 0.6387829 -1.0151372
000310 8a 1f 01 bf ce 7a 07 3f 5b 06 ff 3d 60 a6 4e 3f
       -0.5043875 0.5292176 0.12452384 0.8072262
000320 35 2e b2 3f 03 20 4f c0 7f e0 13 bf c3 93 cf 3f
       1.3920351 -3.2363288 -0.5776443 1.6216968
000330 72 6f f6 bf c6 b3 2c 3f e5 2b 6d 40 0a c0 eb bf
       -1.925276 0.6746181 3.705804 -1.8417981
000340 b3 7a 9e 3d 70 ef f1 3f 30 54 a2 bf c1 f9 ba 3e
       0.07738247 1.8901196 -1.2681942 0.36518672
000350 42 90 a1 3f a0 37 89 be 66 4c de 3c 72 d7 2e 3f
       1.2622149 -0.2680025 0.027136039 0.68297493
000360 b0 92 00 3f 56 52 c7 be 62 6f 07 bf 2b ea af bf
       0.5022383 -0.38930005 -0.5290433 -1.3743337
000370 2f 45 02 c0 b7 f0 a9 bf f9 23 46 3e dd 5a 70 bf
       -2.0354726 -1.3276585 0.1934966 -0.93888646
000380 49 80 f4 3e 76 6c 26 bf 19 92 40 bf b5 e9 89 be
       0.47754124 -0.6500925 -0.7522293 -0.26936117
000390 f4 62 8e 3e 8b 73 b5 be b0 8c 04 3f 84 ad c1 3f
       0.2780987 -0.35439715 0.5177717 1.5131078
0003a0 89 f3 1e be 42 5d 30 bf bd da 48 3f 5a b1 25 bf
       -0.15522589 -0.688923 0.7845877 -0.6472374
0003b0 7a 2f d2 bf 4f cf 2b 3e 26 c3 0a be 99 6f 1f be
       -1.6420739 0.167783 -0.13551006 -0.15569915
0003c0 65 b7 43 3f ef 37 e2 3d 98 2e c1 be 36 21 c9 3f
       0.7645171 0.11045825 -0.3773086 1.571326
0003d0 9b 13 d5 3e 75 69 c2 be ab 78 a3 3f f8 b8 75 3f
       0.4161652 -0.37971082 1.27712 0.95985365
0003e0 63 6d 12 3f ff 4b d0 3f 9a 14 80 3f a7 67 4f 3f
       0.5719816 1.6273192 1.0006287 0.81017536
0003f0 70 86 ce 3f e7 c2 93 3f 0a 43 91 3f ba e4 0e 3f
       1.6134777 1.1543854 1.1348584 0.5581776

feature_extractor.module.0.module.2.bias f4 [16]
000000 fe 7d 67 3f 23 6f 73 bf 65 c0 22 c0 49 fb c5 3f
       0.90426624 -0.95091456 -2.5429928 1.5467311
000010 01 37 eb bf a4 d9 0f bf ef 11 0f c0 4e 50 00 40
       -1.8376161 -0.5619147 -2.2354696 2.0049014
000020 cb f8 8b bf c9 1c 82 3f 34 7d 92 3e 05 4f 00 c0
       -1.09353 1.0165035 0.28611147 -2.004823
000030 20 ed 64 bf d2 56 dc bf 04 18 4c 3d 46 7c 8b bd
       -0.89424324 -1.7213995 0.04982759 -0.06810813

feature_extractor.module.0.module.4.weight f4 [16, 16, 5, 3]
000000 97 22 16 3f 21 96 00 bf 00 df 4f bf 41 88 08 3f
       0.5864653 -0.5022908 -0.81199646 0.53332907
000010 e3 05 3b 3e 7f a7 63 3d 97 59 7b be e4 2c 90 3f
       0.18263964 0.05557966 -0.24545895 1.12637
000020 29 55 0e be 85 db 8b bf 52 c0 4f 3d 3b 10 ac 3f
       -0.13899674 -1.0926367 0.05072052 1.3442453
000030 a3 a0 96 bd 92 03 7c bf 21 c3 86 be 40 6d 09 3f
       -0.07354858 -0.9844295 -0.26320747 0.5368233
000040 72 f9 e7 3e f3 f9 50 3f f4 eb fa 3c 97 84 e0 3d
       0.453075 0.8163139 0.03063009 0.109627895
000050 7f ba 68 be c1 02 1e bf 3c fa 8a be 3c 77 f2 be
       -0.22727393 -0.6172295 -0.2714404 -0.47356594
000060 94 74 03 40 cb 1e 0c 40 c6 0c 1c 40 08 b4 24 40
       2.0539904 2.1893795 2.4382796 2.5734882
000070 3e 2e 77 3f b8 f0 9e 3f 71 a8 7b bf 0f b8 d8 bf
       0.96554935 1.2417212 -0.98303896 -1.693117
000080 aa 8e 29 bf 3e a3 48 3f a1 df ea be ce c9 38 bf
       -0.66233313 0.7837409 -0.4587374 -0.7218293
000090 50 0e 3b 3d 24 a8 ba bf 79 a0 94 bf dd 45 02 3d
       0.045667946 -1.4582562 -1.1611472 0.031804908
0000a0 8e 33 90 bd 8d 8c 0a bf 5a 6d 9a 3e 46 da cb 3f
       -0.07041083 -0.54120713 0.30161554 1.5925987
0000b0 dd 85 a7 3f 66 35 ce 3f 61 bd 59 3d fa cd 13 bf
       1.3087727 1.6110046 0.05315912 -0.5773617
0000c0 93 24 df 3f c7 9a 5f 3e e9 dd 55 be 7c 8e 32 bf
       1.7433037 0.21836387 -0.20885433 -0.69748664
0000d0 d6 6f 09 3f e6 21 a6 bd 8d 6c dd bf e5 a6 a9 bf
       0.53686273 -0.08111934 -1.7298752 -1.3254057
0000e0 82 2e d8 be 51 03 3f 3f 8f 42 40 bf 40 1e ba bf
       -0.42222983 0.74614435 -0.7510156 -1.4540482
0000f0 22 2f 23 bf b8 bd 1b 3f e6 64 e8 3c 4e b5 09 3f
       -0.63743794 0.6083636 0.028368425 0.53792274
000100 a2 a4 49 bf 29 ff e0 bd fe a1 56 bf 62 ca b6 be
       -0.78766835 -0.10986168 -0.8384093 -0.3570128
000110 0c 96 54 be 3f f3 ca be 27 a8 b3 bf 4f 27 97 bf
       -0.20760363 -0.39638707 -1.4035691 -1.1808871
000120 34 e0 25 3f cd 5e 15 bf da 71 0d 3f 41 e0 97 3f
       0.6479523 -0.5834778 0.5525185 1.1865312
000130 e5 27 61 3f 9e 3b 8f 3f 8d b5 87 3e e0 d3 38 bf
       0.879515 1.1190069 0.265057 -0.72198296
000140 b7 dc 87 bf cf d6 0f c0 6b 2f c4 3f 51 83 ea 3f
       -1.0614232 -2.2474859 1.5326971 1.8321325
000150 28 28 ce be 80 f7 7e bf 6f d6 16 c0 a6 f5 28 3f
       -0.40265012 -0.99596405 -2.356838 0.6599983
000160 5d 73 e9 bf c3 a4 36 3e 1c 06 a8 bf de f5 80 bf
       -1.8238331 0.17836289 -1.3126864 -1.0075033
000170 23 23 b5 bf 56 ed ad be dd 0e 6a be 27 ae 23 bf
       -1.4151348 -0.33970135 -0.22857232 -0.6393761
000180 db fb d4 bf 88 25 8f bf 84 38 92 bf 93 25 81 bd
       -1.663936 -1.1183329 -1.1423497 -0.06305995
000190 79 3a d5 be 71 39 be 3d 5a bf b2 3f 9b ee 20 be
       -0.41646174 0.092883 1.3964646 -0.15716021
0001a0 40 89 69 bf e3 29 15 3e a2 d7 62 bf 59 fc dd be
       -0.9122505 0.1456676 -0.8861028 -0.43356588
0001b0 cf c1 ce 3e ee 3b 6d 3e 04 88 89 3e 08 41 18 3f
       0.4038224 0.23167393 0.26861584 0.5947423
0001c0 2d d2 26 3f a7 40 3a 3f dc 9f fa bf ab 24 d7 bf
       0.6516445 0.727549 -1.9580035 -1.6808065
0001d0 60 30 b6 bf 13 84 06 c0 f9 06 4d bf bc fb 3f bf
       -1.4233513 -2.1018112 -0.80088764 -0.7499349
0001e0 c9 69 2f bf 5f 07 e9 be ea a5 0f bf 05 b6 81 bd
       -0.6852079 -0.45513436 -0.5611254 -0.063335456
0001f0 7d 2f 13 bf 46 55 07 3f f5 5f f5 bc 03 be e4 bf
       -0.57494336 0.5286449 -0.029952982 -1.7870487
000200 6a 77 f0 bf c4 9e 65 be e0 50 ea be d5 6a 19 be
       -1.8786442 -0.22423846 -0.45764828 -0.1498216
000210 7d b6 ea be cc 99 7f 3d 09 5d 0c 3f f8 03 76 3e
       -0.45842353 0.06240253 0.5482946 0.24024951
000220 0e 8c c4 bd f5 04 d3 3e 13 03 b9 bc 28 72 ce be
       -0.09597026 0.4121472 -0.022584474 -0.4032147
000230 e6 1b 94 be 29 fb 81 bf 69 8a 93 3f ec e3 fb be
       -0.28927535 -1.0154773 1.1526614 -0.49197328
000240 3a 74 d9 bf b5 80 7e bf bb 06 a5 bf db 7b 21 40
       -1.6988595 -0.9941514 -1.2892679 2.5231845
000250 07 f8 f4 3f 70 3d 31 be c1 98 b0 3e 6d bd 80 bf
       1.9138192 -0.17308593 0.34491542 -1.0057808
000260 b7 d6 fd 3e 46 5b dd 3f c4 86 84 bd f4 a7 de be
       0.49577877 1.729348 -0.06471017 -0.43487513
000270 99 d2 24 bf ca db 15 3e 92 28 df be 67 f9 0f c0
       -0.64383847 0.14634624 -0.4358564 -2.2495973
000280 6a aa 82 bf cd 59 49 be f8 7b c9 3e 7c 9a 9b bf
       -1.0208256 -0.19663163 0.39352393 -1.215652
000290 ab 7e ae bf a4 0e 90 3e ae e7 a2 bf 82 a5 21 3f
       -1.3632406 0.2813617 -1.2726953 0.6314317
0002a0 9d a4 f4 be be 67 31 3f 7d a1 8a 3f b0 6c 6e bf
       -0.4778184 0.69298923 1.0830532 -0.93134594
0002b0 8c 23 f1 bf 49 8f c8 bd 74 33 f8 3f 33 2b 32 40
       -1.8838973 -0.097929545 1.9390702 2.7838867
0002c0 49 fb 7b 3f f5 a4 8c 3e a6 2b 89 be 29 9d e2 3e
       0.98430306 0.27469602 -0.26791114 0.4426053
0002d0 5b 3a 2a bf b9 97 fc 3e 57 3f d4 be 1e d6 0d bf
       -0.66495293 0.49334505 -0.41454574 -0.5540484
0002e0 8d ec 98 bf 2d 78 a4 bf 95 96 22 bf 13 2a 8a 3f
       -1.194719 -1.2849175 -0.6351102 1.079409
0002f0 70 c2 62 3f 98 ff 2a bf 73 45 03 bf 36 70 01 bf
       0.8857794 -0.66796255 -0.51277846 -0.50561845
000300 8f c0 27 bf dc 76 bf bf 0a f8 d9 3d 63 25 88 bf
       -0.65528196 -1.4958148 0.10643013 -1.063641
000310 3a 9c 31 bf 5f 86 41 bf c9 c8 1f bf 40 c8 1f bf
       -0.6937901 -0.7559566 -0.6241575 -0.6241493
000320 d2 ad 80 bf d4 c2 ca 3f dd 0e a4 3e 68 a6 b4 bf
       -1.0053046 1.5840707 0.3204259 -1.4113283
000330 28 47 f9 be 3b 05 0d c0 23 d7 0e c0 02 f2 5b 3f
       -0.486871 -2.2034442 -2.231881 0.8591615
000340 b8 04 1a 40 f5 64 bb 3f a0 40 2c 3e 7d a3 83 3e
       2.406538 1.4640185 0.16821527 0.2571067
000350 6c f6 1b 3f 27 f9 f0 bf 7f 70 34 3f 5e 5d 93 3f
       0.60922885 -1.8826035 0.70484155 1.1512868
000360 0a 91 df bd 41 37 c3 bc c1 9d 2a 40 e5 7b 88 bf
       -0.10916336 -0.023830058 2.6658785 -1.066281
000370 60 f6 0d c0 25 38 15 c0 ac 87 c1 3f fb e4 35 bf
       -2.2181625 -2.3315518 1.5119529 -0.7105252
000380 fd d8 1c 3e d1 8d fa be 70 99 d7 be 2b 3f 88 3d
       0.1531715 -0.48936322 -0.4210925 0.06652673
000390 1d e1 43 3f 04 e7 85 bf 3a 76 2d 3d 12 f2 0e bf
       0.7651537 -1.0461125 0.042349078 -0.5583812
0003a0 11 73 24 bf 9f e6 d8 bf 69 6d 69 bf 7f 31 0c 40
       -0.6423808 -1.694538 -0.9118257 2.190521
0003b0 fc d8 9f be fc 58 d4 3f 67 66 90 3f 5f e0 d2 3e
       -0.31220233 1.6589656 1.1281251 0.41186807
0003c0 ca 74 23 3e d1 4c df 3e c2 c0 d4 be 32 1f ee bf
       0.1596252 0.43613294 -0.41553313 -1.860327
0003d0 7d 74 91 bf d3 25 8f bf d4 cf 91 be 33 9f a0 bf
       -1.1363674 -1.1183418 -0.28478873 -1.2548584
0003e0 1c d6 2f 3f d6 b3 20 3f 80 dd 68 3f 5c f1 88 3f
       0.6868608 0.6277441 0.9096298 1.0698657
0003f0 dd c2 6f 3f c8 0c 92 3e 17 29 cf be ce ef 67 be
       0.9365671 0.28525376 -0.40461037 -0.22650072

feature_extractor.module.0.module.4.bias f4 [16]
000000 40 50 2d 3f 91 a0 ab 3f b0 1c c2 3f d6 b3 7a bf
       0.67700577 1.3408376 1.5165005 -0.9793066
000010 97 81 39 bf af fd 6c bf fe 79 a3 be ec b7 43 3f
       -0.72463363 -0.9257459 -0.3192901 0.7645252
000020 69 c6 8b bf ca 01 ca 3f 9c fb 1f 3d 45 48 c1 3f
       -1.0919925 1.5781796 0.039058313 1.510018
000030 ce 1f c4 3d 28 81 cf bf 5e 55 49 bf 82 b9 55 3f
       0.09576379 -1.621129 -0.78645885 0.8348619

feature_extractor.module.0.module.7.weight f4 [128, 288]
000000 75 46 e8 3e b2 f7 11 bf 39 27 2f bf 4e 98 e5 bf
       0.45366254 -0.5701858 -0.68419224 -1.7937105
000010 9f 0d bd 3e c1 c9 38 bf 29 de 92 3f 52 cb d7 3f
       0.36924455 -0.7218285 1.1474048 1.6858923
000020 4a 8f 3f bf fa 5e 37 bf c9 52 e9 3e 8b 32 c0 be
       -0.74828017 -0.716293 0.45570973 -0.3753856
000030 f4 85 b2 bf d5 82 e8 bf 65 a5 84 bf a4 33 41 bf
       -1.3947129 -1.8164927 -1.0362974 -0.7546942
000040 4d 90 ac be 8d c5 f0 be 8c 90 ca bf 9c 0b cb bf
       -0.33703843 -0.4702572 -1.5825362 -1.5862918
000050 83 83 9f 3f 48 0f e7 3e ce 43 9d 3f a8 2a 70 3e
       1.2462009 0.45128846 1.2286317 0.23453772
000060 15 c9 8b 3f 2a 8f 0b 3f 89 d7 31 be 30 0d 34 bf
       1.092074 0.54515326 -0.17367376 -0.7033262
000070 5b 73 c3 bd 9a 16 3d 3f 48 c6 a0 bf ba 03 7e bf
       -0.09543487 0.7386261 -1.2560511 -0.99224436
000080 21 fc 42 3f e1 5d 00 3f 73 54 d5 3f e3 74 28 3e
       0.7616597 0.5014325 1.6666397 0.16450839
000090 2a b6 00 bf 71 5a 42 bf 42 96 26 be c5 8c 6f 3f
       -0.5027796 -0.7591925 -0.16268256 0.9357417
0000a0 72 f5 43 be 87 30 50 3d f2 78 ee be de 94 93 3f
       -0.19136599 0.05082753 -0.4657665 1.1529806
0000b0 ae 8a f3 be 35 5f fd bd c2 6b 0c 3d 93 82 7d 3f
       -0.47566742 -0.12371675 0.034282453 0.99027365
0000c0 e7 86 e2 3d 00 32 92 be a6 ae be be 27 d0 f6 bd
       0.11060887 -0.28553772 -0.3724262 -0.12051421
0000d0 49 2a 11 3f bc f0 3c 3f 4c 43 37 bf ca 31 25 c0
       0.5670515 0.7380483 -0.7158706 -2.581164
0000e0 ac 6a 0e bf 4f ca 45 bf 5b 99 4d bd dd 10 6c bf
       -0.5563152 -0.77261823 -0.05019508 -0.9221323
0000f0 c2 9e b3 be 35 21 07 bf 9b 9e 30 3f 5c 6b af bd
       -0.3508206 -0.52785045 0.6899201 -0.08565399
000100 46 6e 05 3f 36 4e c8 be ae 6c e1 3e 3a 95 84 3d
       0.5212139 -0.3912217 0.4402823 0.06473775
000110 5b 9c ed 3f 97 6a 6d 3f 7a 27 01 c0 f1 ef 1d 3e
       1.8563341 0.9274077 -2.0180345 0.15423562
000120 6e 3d 2a bf 98 72 64 3b 8d c0 9e be f8 28 42 3e
       -0.66499984 0.0034858342 -0.3100628 0.18960941
000130 11 ea 28 bf 12 71 26 3e ce 8a 41 bf f0 aa 8c bf
       -0.65982157 0.1625407 -0.75602424 -1.0989666
000140 cd 69 d8 be 74 9b 86 3f 58 b8 70 3e ff 3e 50 3f
       -0.4226822 1.051619 0.23507822 0.81346124
000150 fa a8 7e 3e 32 4d 35 be 1b 6c d3 bf 06 7e aa 3e
       0.24869147 -0.17705229 -1.6517366 0.33299273
000160 6e 7c f3 bf 5c 1c 61 bf 70 2c 11 bf 96 40 aa be
       -1.9022348 -0.879339 -0.5670843 -0.332524
000170 74 66 5c c0 94 8e 72 bf 7c 2b cc bd 4a 1c a7 3e
       -3.4437532 -0.94748807 -0.099692315 0.3263877
000180 27 a3 6e bf 1c 2d 62 bf 4d 3f 9b bf 27 dc 04 3f
       -0.932177 -0.8835008 -1.2128693 0.51898426
000190 e1 3d 35 3e 15 86 32 3f d5 0a 06 3e 9b e4 4f 3f
       0.17699386 0.6973584 0.1309007 0.812082
0001a0 4f 5c 9c bf 48 9e 2f bf 6c 3a b8 bf 16 5d a2 be
       -1.221567 -0.68600893 -1.4392829 -0.31711644
0001b0 c3 c5 8c bf ad 0b 0e bf 14 0e 0d c0 27 00 2d bf
       -1.0997852 -0.55486566 -2.2039843 -0.6757836
0001c0 8e 85 0c c0 00 0c f2 bf 5f e4 af be 83 42 b5 3e
       -2.1956515 -1.8909912 -0.3435392 0.35402307
0001d0 80 52 5f bf 13 f0 71 bf 3a da 81 3f 9b a3 23 3f
       -0.8723526 -0.9450695 1.0144722 0.6392152
0001e0 6b 9e 6b bf bb bc de 3f 21 35 25 c0 d7 5a fd 3f
       -0.920386 1.7401346 -2.5813677 1.9793347
0001f0 7e 43 95 bd 42 d3 af 3f 6b d3 16 3e e1 51 01 c0
       -0.07288264 1.3736346 0.14729087 -2.0206225
000200 b0 01 fb be 48 e6 89 bf ca 18 43 3f 70 1b 41 bf
       -0.49024725 -1.0773401 0.762097 -0.7543249
000210 33 75 20 bf 29 6a 3b 3f 74 d4 0c 3f b0 c4 b1 be
       -0.6267883 0.7320886 0.5501168 -0.34720373
000220 06 a1 58 be e5 1b 75 bf c7 3f 98 3e 18 40 d6 bd
       -0.21155176 -0.9574569 0.29736158 -0.10461444
000230 e4 00 ac bd 80 93 f0 bf 6c 2b c9 3e 8a 6a 1f bf
       -0.083986074 -1.8795013 0.3929094 -0.6227194
000240 ce 7b 0c bf 1b fa 1d bf fe 44 56 bf 2f d6 26 bd
       -0.5487641 -0.61709756 -0.83699024 -0.040731605
000250 c4 cb 1e be 97 9c 8b bf 62 65 53 bf 63 3d 03 3f
       -0.15507418 -1.0907162 -0.8257657 0.51265544
000260 6b 5a d1 bf 2d 8c c1 3f e3 d0 d3 be f7 68 62 3f
       -1.6355718 1.5120903 -0.41370305 0.88441414
000270 ca 49 86 3f 44 9a ef be 98 19 61 be ac a4 89 3f
       1.0491269 -0.46797383 -0.2198242 1.0753379
000280 70 45 cd bf 84 d4 65 be b8 37 7b 3f 50 05 cc 3f
       -1.6036816 -0.2244435 0.98131895 1.5939121
000290 5e 64 fa be fb e0 1c 3e 0b 4c 87 3f 3d 76 84 bd
       -0.489047 0.15320198 1.0570081 -0.06467865
0002a0 46 c3 c6 3f 02 4c ac be 9c d1 80 3f ca ad 8c 3f
       1.5528343 -0.3365174 1.0063968 1.0990536
0002b0 76 53 37 3f a8 64 3a be 58 10 95 3e 51 2e b1 3e
       0.71611726 -0.1820246 0.29114032 0.3460565
0002c0 8e 64 a3 3e 0b db 0b bd 73 92 0a c0 02 d1 21 bf
       0.31912655 -0.034144443 -2.1651886 -0.63209546
0002d0 b1 ad c4 be cb f5 27 bf 81 49 97 be 6d 99 cb be
       -0.38413766 -0.65609425 -0.29548267 -0.39765492
0002e0 c3 25 9b be be 84 43 3f ed 7c bd 3e ef e6 31 bf
       -0.30302247 0.76374424 0.37009373 -0.69493
0002f0 90 e9 4f be b8 20 c6 3e 94 42 8f 3e 74 8c 5d bf
       -0.20303941 0.38696837 0.27980483 -0.8654244
000300 69 00 41 3e b8 db 86 bf 31 d0 34 be eb 04 e0 be
       0.18847813 -1.0535803 -0.17657544 -0.43753752
000310 2e 23 c3 3f 19 4a e3 bd f6 a4 47 bf 00 98 54 bf
       1.5245111 -0.110981174 -0.77986085 -0.83044434
000320 6d a8 63 3e 6c a9 dd bf 71 0c 0e 3f 00 5d ba bf
       0.22232218 -1.7317328 0.55487734 -1.4559631
000330 09 12 7f be 13 db 50 bf d7 e6 38 3e b7 51 19 bf
       -0.24909224 -0.8158428 0.18056808 -0.5989031
000340 c4 d2 16 3f fb 93 21 bf 99 dd e2 3d d9 91 2a 3f
       0.5891535 -0.63116425 0.11077423 0.66628796
000350 69 4a 8f 3d 9f f3 ec be 8b 44 fb 3f 07 20 83 bf
       0.069966145 -0.46279618 1.9630293 -1.0244149
000360 c4 bd 48 bf b4 72 7e bf bc ff d6 3f c4 79 18 3e
       -0.7841456 -0.99393773 1.6796794 0.148902
000370 ae b4 55 3f 5f a1 27 bf 9e a4 cd 3e d0 40 d7 3e
       0.8347882 -0.6548061 0.40164655 0.42041636
000380 ca 52 a2 be f7 b1 2f be 36 f3 a3 3f ab ee 53 be
       -0.31703788 -0.17157732 1.2808597 -0.20696513
000390 f0 0b 33 be 71 f0 7d be 2d 72 d1 3e 0c 1c e6 be
       -0.17485023 -0.24798752 0.40907422 -0.44943273
0003a0 36 a6 88 3f 7b fa a5 bf 82 94 62 bf 03 4d 7f bf
       1.0675724 -1.2967066 -0.88507855 -0.99726886
0003b0 00 c8 5a bf 71 e3 09 c0 67 9f 21 bf 37 82 f0 bf
       -0.85461426 -2.154507 -0.63133854 -1.8789738
0003c0 33 c0 4f bf 0e 88 77 bf ef c0 8e bf 46 73 2b 3e
       -0.8115265 -0.9669198 -1.1152629 0.16743192
0003d0 c8 0f 88 be 9e 22 ff be b6 71 78 be 28 45 db be
       -0.2657454 -0.49831098 -0.24262127 -0.428262
0003e0 77 13 81 bd af 98 d0 bf f8 53 47 c0 0c f9 cc be
       -0.06302541 -1.6296595 -3.1145 -0.40033758
0003f0 8d 8c bb be 9d cf 92 bf be fa 8a be 58 4d 09 c0
       -0.3663067 -1.1469609 -0.27144426 -2.1453457

feature_extractor.module.0.module.7.bias f4 [128]
000000 1d cf 66 3f 00 a9 aa bf 04 c7 0d bf df 77 d4 be
       0.9015978 -1.3332825 -0.553818 -0.41497704
000010 32 44 df be a1 d3 2f bf 8e f2 43 3f a8 0a 13 3f
       -0.43606716 -0.68682295 0.76541984 0.57438135
000020 53 73 06 3f c4 89 a0 3a 05 f3 19 40 f3 8e 25 3d
       0.5251972 0.0012248089 2.4054577 0.04041953
000030 74 0b 3c 3e 17 ef 6b bc 6e d1 ed 3d 6e c1 bc 3e
       0.18363744 -0.014400265 0.11612211 0.36866325
000040 41 84 88 bf d5 28 81 3f 65 c0 cf 3e a4 d3 d9 3e
       -1.0665361 1.0090586 0.40576473 0.4254428
000050 be a2 1d be 3e aa 38 3f be 5c 0d 3f c0 44 99 c0
       -0.15394112 0.7213477 0.5521964 -4.7896423
000060 12 92 e1 3e 19 68 5c 3e 20 cb 8a 40 59 92 c5 bf
       0.44056755 0.21524085 4.3372955 -1.5435287
000070 47 2d ad bf fa 48 e4 be 4f f9 96 40 3a 99 4c 3f
       -1.3529443 -0.44586927 4.717933 0.79921305
000080 4c 7f 33 3f 39 2e f6 3e c2 60 9b 3f 9e 46 1e 3f
       0.70116115 0.4808214 1.2138903 0.61826503
000090 0c cd b8 bf ef 6e ca 3f 10 06 c0 be 86 22 39 bf
       -1.4437575 1.5815104 -0.37504625 -0.72318304
0000a0 00 17 05 bf 8e a8 c0 bd de 69 b8 3d ad af 23 3f
       -0.5198822 -0.09407149 0.090045676 0.63939935
0000b0 27 ea 33 bf f9 09 3e bd 7b a4 c8 bf 83 3e 19 3e
       -0.70279163 -0.04639623 -1.5675195 0.14965253
0000c0 79 74 c5 bf 4f 41 04 3f 4a 83 12 3f bc ff 4f bd
       -1.542617 0.51662153 0.5723158 -0.050780997
0000d0 98 51 b4 be 3d 22 4f 3f bd 24 8f 3e cb 60 c3 3f
       -0.352185 0.8091162 0.27957717 1.5263914
0000e0 da bf a1 3f d4 b2 d4 be 10 ce fc 3e 85 53 5a be
       1.2636673 -0.41542685 0.49375963 -0.21320923
0000f0 fa 1c 74 3f 04 d9 89 bf 3e ef 86 3f 2c cf 8a 3e
       0.95356715 -1.0769353 1.0541761 0.27111185
000100 c4 b7 70 3e e7 ed e8 be b2 2a cd bf 1f 23 3c 3f
       0.23507601 -0.45494005 -1.6028655 0.7349109
000110 26 ac b9 bf 9c e3 1a 3e e4 93 dc bb 51 de b1 be
       -1.450566 0.15125889 -0.006731497 -0.34739926
000120 89 6d c8 be b6 66 68 bf 8f 89 14 bf 4d 32 a0 bf
       -0.3914607 -0.90781724 -0.580224 -1.251535
000130 d8 21 b4 3e 12 9f 89 bf ec e0 08 c0 77 90 c3 3f
       0.3518207 -1.075167 -2.1387281 1.5278462
000140 d0 98 2c 3e a5 19 ad 3f 9e 23 9c 3d 65 4e c2 3e
       0.16855168 1.3523451 0.07623981 0.37950435
000150 3f 06 a9 3e 9d 2d 7c 3e 6a 8b 54 bd 85 17 ae bf
       0.33012578 0.24626775 -0.051890768 -1.3600928
000160 13 d0 8b 3d 2a 7c 0c bf 37 57 eb 3e e9 60 cb 3f
       0.068267964 -0.5487696 0.45964977 1.588895
000170 c7 e1 08 bf 5c c7 0d 40 7d c5 20 bf 5d 48 83 40
       -0.5346951 2.215293 -0.62801343 4.1025834
000180 95 76 ca 3e 9d 39 95 3f bb 57 a6 bf ca 84 86 3e
       0.39543596 1.1658207 -1.2995523 0.26273185
000190 36 20 96 bf 68 ba 61 be 46 2f 92 bf fa 7c 49 c0
       -1.172858 -0.22043765 -1.1420677 -3.148253
0001a0 9e bd 06 3f 4f 4e 31 3f b7 73 e3 bf 94 56 57 be
       0.5263308 0.69260114 -1.7769688 -0.2102912
0001b0 f5 5e 33 be e3 ee 11 be d5 b2 7e 3f e6 f8 3e be
       -0.17516692 -0.14251284 0.99491626 -0.18649635
0001c0 33 10 e3 bf 38 38 2b bf 3d 43 ae 3e d1 98 9b c0
       -1.7739319 -0.6688266 0.34035674 -4.8624043
0001d0 f8 59 20 be dc db bf bf bc c5 3b 3f 76 7d 56 bf
       -0.1565932 -1.4988971 0.73348594 -0.8378519
0001e0 03 f0 c5 3f fd b5 75 bf 6f 73 0f 3f e5 d7 cb bf
       1.5463871 -0.9598082 0.5603551 -1.5925261
0001f0 1d 5b d2 3e ec 90 0d bd c2 fe 0a bf 2c 4e 98 3d
       0.4108514 -0.034562036 -0.5429498 0.07436785

feature_extractor.module.0.module.8.weight f4 [128]
000000 e4 f1 fd 3e fd ec bc 3e 8f c3 8a bd d3 06 49 3d
       0.4959861 0.36899558 -0.06775581 0.049078774
000010 c4 2e 50 bf c4 55 ea bd e2 5b 2d 3f e2 cc de 3e
       -0.8132136 -0.1144214 0.6771833 0.43515688
000020 87 6f 07 3f 99 20 d3 be 3b f1 cd 3e 5d ea 8f 3f
       0.5290455 -0.41235808 0.40223107 1.1243397
000030 a6 6a 8d 3e 5e 0b f2 3e 8d 2c 67 be 28 1a 34 3f
       0.2762043 0.47274297 -0.22575589 0.7035241
000040 a4 2c 24 3f 6a 23 3a 3f f0 a8 2e 3f da 4c 5d 3f
       0.64130616 0.7271029 0.6822653 0.8644539
000050 2b a1 3f 3f cb 70 6a 3e 46 f3 c3 3e e1 84 88 3b
       0.748553 0.2289459 0.3827154 0.004166231
000060 cd b0 b2 3b f4 ca 8d 3e 5d ea 2b 3f 23 fc ea 3e
       0.005453205 0.27693903 0.67154485 0.4589549
000070 aa 7d dc 3e 92 c8 e8 3d 1e 9e a8 3c cd d4 65 3e
       0.43064624 0.11366381 0.020583209 0.22444458
000080 33 39 d3 3e 7d 66 62 3d 10 dd 90 3e d2 97 47 3f
       0.41254577 0.05527352 0.28293657 0.77966034
000090 fa 55 9f 3d 1c ef 6c 3e d5 15 cb 3b fb 44 10 3f
       0.077800706 0.23138088 0.006197671 0.56355256
0000a0 79 5c 1a 3f e9 33 bc 3f 81 40 19 bd a0 97 a2 3e
       0.6029735 1.4703342 -0.03741503 0.31756306
0000b0 ca 1d 42 3f 0f c3 fc 3e aa 9a 30 3e a5 7e 01 3f
       0.75826705 0.49367568 0.172465 0.5058387
0000c0 0a 06 b8 3e 17 37 f7 be 04 5f 3d 3f b1 40 60 3f
       0.35942107 -0.48284218 0.7397311 0.8759871
0000d0 9a 23 c2 3e 9b 4e 96 3f 62 67 1c 3e 2f 50 25 3f
       0.37917787 1.1742738 0.15273812 0.64575475
0000e0 d7 20 48 bf 4d e7 0b 3f 51 8f 21 bf fe f3 be 3e
       -0.7817511 0.5464981 -0.6310931 0.37295526
0000f0 04 5f 1c 3f df 92 78 3f 15 c4 92 3d 28 fc 4d 3e
       0.6108248 0.9709911 0.07166306 0.20115721
000100 63 93 46 3f 06 c8 eb be 03 76 46 be da a0 76 3e
       0.77568644 -0.46051043 -0.19380955 0.24084798
000110 42 f9 39 3f d1 71 56 3f 1d ae ed 3e d2 58 61 3b
       0.7264596 0.8376742 0.464219 0.0034385216
000120 00 8d 16 bf 14 ce ee 3e 13 ee e7 3e b1 a3 92 3e
       -0.588089 0.466416 0.45298824 0.28640512
000130 35 d1 f8 be 37 52 65 3f b8 99 b7 3e 1f 88 0b 3e
       -0.48597112 0.89578575 0.35859466 0.13626145
000140 28 31 a0 3c fd 82 33 bf bc 73 01 be e0 b1 89 3f
       0.01955469 -0.7012175 -0.12641805 1.0757408
000150 af c7 1a 3e 67 9f c3 3e 26 4b 3d 3f f3 50 f1 3e
       0.15115236 0.38207552 0.7394279 0.47132072
000160 cc 49 33 3f 85 98 56 be 82 68 bc 3f ce 7e fb 3c
       0.7003448 -0.20956619 1.4719393 0.030700114
000170 03 51 cf 3d 62 0d 5a 3e 7e 3f 54 3f 40 81 90 3c
       0.10122874 0.21294168 0.8290938 0.017639756
000180 3c 95 42 3f a6 0f 50 3f 8e 43 92 3e ec 40 0f 3f
       0.76008964 0.8127388 0.28567165 0.5595844
000190 7f 16 d9 be 8b b4 d7 3e 2b 8b 1d 3c 4b 80 83 bc
       -0.42399976 0.4212993 0.0096157 -0.016052386
0001a0 4c 90 e5 3c 2b e4 08 3f d1 29 27 3f da 0c da 3e
       0.028022908 0.53473157 0.6529818 0.4258793
0001b0 16 41 07 3f e7 9f 91 be a4 fb 3d 3f db ac cc 3d
       0.5283369 -0.28442308 0.742121 0.09993907
0001c0 6b 23 a6 3e 2a 62 7e 3f 4a 0e 16 3f ef a9 00 3f
       0.32448897 0.99368536 0.58615553 0.502593
0001d0 9c 2e 0c bf d4 5e c9 3e f1 1f ce 3e 07 84 27 3e
       -0.5475862 0.3933016 0.40258744 0.16358958
0001e0 33 0f 62 3e fd 69 14 3f 10 11 cb 3e dd c3 f6 3c
       0.2207611 0.57974225 0.39661455 0.030122692
0001f0 d8 fc ff 3e 88 dd b4 be ba 01 b7 3e ec 0a f8 3e
       0.49997592 -0.35325265 0.35743505 0.48445833

feature_extractor.module.0.module.8.bias f4 [128]
000000 db 3a bc 3e 08 0f 99 bd 33 f0 22 bd 42 e0 c1 3a
       0.36763653 -0.0747357 -0.039779853 0.0014791565
000010 39 02 03 3e 7d 32 e3 bb 93 95 02 3e df 7e 0d 3d
       0.12793817 -0.006933509 0.1275237 0.03454482
000020 4c 07 a4 bc e1 59 1d bd 93 78 f8 ba 0c 7b ae be
       -0.02002301 -0.038415793 -0.0018956832 -0.34078252
000030 fc 29 ff bc bb 92 bf bc 45 93 0e ba 8f 7b 8a 3c
       -0.03114795 -0.023385396 -0.0005438815 0.01690462
000040 b8 ca 84 be 9a 42 6d 3e 77 06 0f 3e 9d 16 02 3f
       -0.25935912 0.23169938 0.1396731 0.50815755
000050 ca e8 93 3d e2 2e 8c 3d fe b2 27 3e 0e 61 15 bd
       0.07222135 0.0684488 0.16376874 -0.03646951
000060 b6 a6 24 bb 3d e8 4b 3d fe e7 08 3f 81 bf 43 be
       -0.0025123782 0.049782027 0.5347899 -0.19116022
000070 c3 48 9d be 47 97 95 bc 2e 0c 2b bd ba 12 86 3d
       -0.30719575 -0.018260611 -0.041759662 0.065465406
000080 d1 13 39 3b f4 1e c8 3b 97 82 9f 3d ec 6c 78 3e
       0.0028240571 0.0061072055 0.0778858 0.242603
000090 e4 13 52 bc 5a 3c 0a 3d fe 5e 23 ba d1 d1 60 be
       -0.012822125 0.033748962 -0.00062321115 -0.21955039
0000a0 b0 dd 46 be 10 61 92 be f4 1d 37 bd a8 d2 f1 bb
       -0.19420505 -0.28589678 -0.0447063 -0.0073798485
0000b0 05 45 b2 3e 83 09 92 bc 22 9c 14 bd 90 bf 6a be
       0.34818283 -0.017826801 -0.036281712 -0.22924638
0000c0 60 d0 1d bd c4 59 7a bd 05 df 47 3e 85 6a b0 be
       -0.0385288 -0.061120763 0.19518669 -0.34456268
0000d0 92 61 3e 3d c5 40 e6 3d e4 d4 b3 bb c0 01 bd 3d
       0.04647977 0.112428226 -0.005488025 0.092288494
0000e0 2c df c7 bd 8a 2c aa 3d 68 84 5a bd 24 eb 50 3d
       -0.097593635 0.083092764 -0.05334893 0.051005498
0000f0 88 8b 97 3e c6 a5 37 be 94 cb d5 39 53 99 09 3d
       0.2959864 -0.17934331 0.00040778203 0.033593487
000100 cc 38 5c bd 57 79 1d 3d 71 61 1a bd f4 0e 4b 3d
       -0.053765103 0.038445797 -0.037690584 0.049574807
000110 8d 4f ab 3b 08 cf 11 be 89 76 2e 3e 36 9d 16 bc
       0.005227989 -0.14239132 0.17037405 -0.009192755
000120 d4 ed 6f 3e 6f d3 21 be 4f c1 29 3c f5 01 79 bb
       0.23430568 -0.15803312 0.01036103 -0.0037995551
000130 26 40 df 3d e7 98 0e bc 73 e8 3d be b4 68 20 be
       0.10900907 -0.008703447 -0.18545704 -0.15664941
000140 3d 1c 38 3c 98 25 1f 3c 23 36 81 bd ed 6c b8 3e
       0.011237201 0.009713553 -0.06309154 0.36020604
000150 92 25 6a 3b f0 53 d1 bd f0 3e 98 3e eb 6f b5 bc
       0.003572796 -0.10221088 0.29735518 -0.022148093
000160 20 10 b4 3e 6c ad 33 3d 1b 64 0d 3e ab fd 73 bc
       0.35168552 0.04386656 0.13807718 -0.014892022
000170 37 41 2f bb 51 ec 93 bb f4 4a 64 be c9 b5 4b 3c
       -0.0026741752 -0.004514255 -0.22294217 0.012433478
000180 0b 9d 7b 3d 01 5d d7 3c 19 be 1e be f5 e8 63 3e
       0.061429065 0.026289465 -0.15502204 0.22256835
000190 72 94 a8 3d e3 0c 24 39 27 bc 0e bb 57 34 5c bd
       0.08231439 0.0001564506 -0.0021779628 -0.053760853
0001a0 e3 3c 53 3c ac f0 11 3d 30 3e 8b bd b2 39 78 bd
       0.0128929345 0.035629913 -0.06798971 -0.060601898
0001b0 67 fe 6a bd 57 a8 7a 3b 6b c1 c9 bd 01 8c e3 3c
       -0.057371523 0.003824731 -0.09851345 0.02777672
0001c0 87 d8 a2 bd 84 bb 89 bd c3 6e 61 3e bf 8c bd be
       -0.079514556 -0.06725219 0.22014908 -0.37021443
0001d0 58 be a7 3d be 4a ec bd 0c 59 c7 bd 9e 42 f7 3b
       0.08190602 -0.115376934 -0.09733781 0.007545783
0001e0 30 f9 a7 3d 52 07 55 be 55 d6 0d 3c 9b 0f 15 bd
       0.082018256 -0.20803574 0.008657058 -0.036391836
0001f0 fc 87 52 3b 25 c1 a7 3d ae 1d 10 be bc 5b 97 be
       0.003212451 0.08191136 -0.14073822 -0.29562175

feature_extractor.module.1.module.1.0.weight f4 [128, 50]
000000 9d ea 1a c0 36 b6 9a 40 27 1e 23 3e 1d fa f7 3e
       -2.4205697 4.8347425 0.15929471 0.4843301
000010 f6 04 47 bf 7d dc 32 bf a3 4c 0b 40 36 a8 c6 bd
       -0.77741945 -0.6986769 2.1765525 -0.097000524
000020 01 d7 60 be ba 36 4a bf fa 83 f9 be 03 c0 7b 3e
       -0.21957017 -0.78989756 -0.48733503 0.24584965
000030 b0 5b f6 3e 30 8b 21 3e 2c 9d 31 be 6d 7e 08 bd
       0.48116827 0.15775752 -0.17345113 -0.033323694
000040 08 b8 d1 3d 50 98 9a 3d 38 3b 6c be 7d 77 7d be
       0.10240179 0.075485826 -0.23069465 -0.24752612
000050 c3 43 2b 3e 63 77 13 3f 7d 03 14 3f 35 7b bd 3d
       0.16725068 0.57604045 0.5781782 0.092520155
000060 43 f3 b2 be 99 14 f4 bd 15 74 14 bf 4f b3 6a 3d
       -0.3495122 -0.11917991 -0.5798963 0.05729991
000070 d5 ce e0 bd 4d 04 00 bf 3b f5 1d bf f5 7d 14 3f
       -0.1097695 -0.5000656 -0.61702317 0.58004695
000080 1a a2 fa 3e 29 d6 ca 3d fc 1a 79 be 6e b9 b9 be
       0.489518 0.09904129 -0.243267 -0.36274284
000090 16 68 46 be 73 a2 93 3d 0a c9 52 bc e2 8d b3 be
       -0.19375643 0.07208719 -0.012865314 -0.35069185
0000a0 b9 a2 5a 3f 0f f9 32 3f 85 62 75 3d 83 a8 53 be
       0.85404545 0.69911283 0.05990841 -0.20669751
0000b0 b7 cd 44 bf 67 89 f1 be 90 a7 17 3f 4f 2d e5 3c
       -0.76876396 -0.47175142 0.59240055 0.027975706
0000c0 17 95 f0 3d d2 c8 3a be 59 4c 08 c0 e6 99 27 bc
       0.11747187 -0.1824067 -2.12966 -0.010229563
0000d0 2a 8d 88 bf b2 f3 6f be c2 5f 93 3e 92 2b b3 3c
       -1.066808 -0.23432806 0.28783995 0.021871362
0000e0 8b 48 7d 3f 49 b7 2c bd fb dc a9 bd 9a 40 ac 3f
       0.98938817 -0.04216698 -0.08294102 1.3457215
0000f0 0c 16 84 3f da 17 5b 3f 42 9b b9 3e b7 14 04 bf
       1.0319228 0.8558327 0.36251265 -0.5159411
000100 d6 b9 2e 3f 09 19 c4 3e 8f 8b bc bd 98 d3 0b be
       0.68252313 0.3830035 -0.09206306 -0.13654935
000110 d3 b9 f3 3d 81 6a e4 b9 be f1 92 3e 96 93 24 3e
       0.119006775 -0.000435669 0.2870006 0.16071925
000120 3c 31 a4 bf 78 bf 51 bd 44 08 52 3e 79 aa d4 bd
       -1.2827525 -0.05120799 0.20510966 -0.103840776
000130 36 70 21 bf 5f d2 09 3d b6 83 d7 be 6b 2a e6 3e
       -0.63061845 0.03364789 -0.42092675 0.44954237
000140 72 ca 1d 40 74 95 93 3d f6 0f 4f bc 4d 7e 99 3c
       2.4654813 0.0720624 -0.012638083 0.018736983
000150 3c 9c 55 3f ec d8 cf be 1e 26 ac 3e f0 fe 70 bd
       0.8344152 -0.40595186 0.3362283 -0.058836877
000160 c4 d9 3a 3e 84 72 5c be 50 aa e5 40 e7 2d 5b 3e
       0.18247133 -0.21528059 7.17704 0.21404229
000170 d5 2f 1a 40 56 b5 b5 be 44 e5 5e 40 7e 86 b7 bf
       2.4091694 -0.3548991 3.4827433 -1.4337919
000180 ba 88 7b bd 6a e5 03 ba 35 82 ca 3f 8c ae 23 c0
       -0.06140969 -0.0005031439 1.5820986 -2.5575285
000190 1c 41 53 c0 0e 90 2b bf 91 76 19 bf 06 80 26 3f
       -3.300849 -0.67016685 -0.5994654 0.650391
0001a0 64 11 60 bf fd 3a 1f 3f 35 37 38 bf f2 f7 93 bd
       -0.87526536 0.62199384 -0.7195924 -0.07225026
0001b0 db db c2 3e e4 ea 5c 3d 4b 5a 35 c0 b0 e0 45 bf
       0.3805836 0.053934947 -2.833636 -0.7729597
0001c0 c9 bf c6 bd e4 be 63 bf af 4a 68 bf 52 8a 24 3d
       -0.09704549 -0.8896315 -0.9073896 0.040170975
0001d0 c8 9f fb be 7b 1e 34 bd 91 dd eb bc 24 10 2c 3f
       -0.4914534 -0.04397438 -0.028792175 0.6721213
0001e0 5f 89 81 bf 20 0b da 3e 70 0c 65 3e ea c3 29 bf
       -1.0120047 0.42586613 0.22368026 -0.66314566
0001f0 53 fa 0c bf 35 0c ff be 95 ad b1 3e 89 c8 a7 3b
       -0.55069464 -0.49814 0.34702745 0.005120341
000200 9f d5 2c bf 06 05 62 3e 7c 82 23 bf 9c 7e 10 c0
       -0.6751346 0.22072229 -0.6387098 -2.2577276
000210 f5 26 fe 3e 8c d9 b3 be fc e0 aa bd e4 59 2d bf
       0.49639097 -0.35126913 -0.083436936 -0.6771529
000220 2a e7 aa bf 7f 6c 03 3d 07 90 c9 3e d4 c5 30 3f
       -1.3351796 0.03208589 0.39367697 0.6905186
000230 69 c9 d9 bf a8 59 cd 3e 3f 79 97 3f 26 cb b0 bf
       -1.701459 0.40107465 1.1833876 -1.3811996
000240 25 ac 25 3f aa ee 1a 3f 50 0f c5 bf 85 cf 2d be
       0.64715797 0.6052042 -1.5395298 -0.16973694
000250 d4 a1 49 bf 2a 9b fe be c1 9b 77 bd fa e4 b0 3d
       -0.78762555 -0.49727756 -0.060451273 0.08637424
000260 bc a2 94 be b6 4b b0 bd 8c 86 94 bb cd dd d3 3d
       -0.29030406 -0.08608191 -0.004532641 0.103450395
000270 d1 80 aa 3d 25 84 3f bd 10 e7 d9 bd b7 e8 58 be
       0.08325351 -0.046756882 -0.10639775 -0.21182524
000280 53 a0 05 3e fa b5 4b 3e 3f 94 4d 3d fd 06 a3 bd
       0.1304944 0.19893637 0.050190207 -0.07960317
000290 00 e3 8a be 57 84 65 bd 8f f2 56 be 6d 5f 9f bd
       -0.27126312 -0.056034412 -0.20990966 -0.07781873
0002a0 dd 04 8e bd 5e f3 60 be 4e 56 09 40 5b 22 12 41
       -0.06934521 -0.21967837 2.1458926 9.133388
0002b0 65 6c 98 3f 88 84 9a 3d 15 51 db 3e 94 16 bc be
       1.1908079 0.075448096 0.42835298 -0.36735976
0002c0 4a 9f 93 40 5b 0f 68 3d 28 e6 b2 3d b6 23 40 bf
       4.6131945 0.05665527 0.08735305 -0.7505449
0002d0 27 17 e9 3c 00 d6 89 bd 71 da 36 3e 26 03 89 3d
       0.028453423 -0.067302704 0.17856766 0.06690054
0002e0 be 2f 4e be 64 93 1a 3c 55 a5 93 be 74 0a 91 bd
       -0.201354 0.009434555 -0.28837076 -0.07082072
0002f0 ff a2 e2 bd 75 90 98 be 01 75 7c 3e 5d 27 ed 3c
       -0.11066245 -0.29797712 0.24654008 0.028949434
000300 27 c4 15 3f b1 85 88 3c 29 9b 90 be c0 bb 88 bd
       0.5850243 0.016665312 -0.28243378 -0.066764355
000310 28 87 42 bd 51 69 66 be 4b 1f de bb 41 51 8f bd
       -0.047492176 -0.22501113 -0.0067786328 -0.0699792
000320 85 62 16 c0 6a 31 2d 3d 02 1c ef be 7a 07 58 3f
       -2.3497632 0.042283453 -0.46701056 0.8438641
000330 47 27 90 bf 29 18 8b bf 39 52 31 bf 00 ec fd 3d
       -1.1261986 -1.0866748 -0.69266087 0.12398529
000340 64 e8 92 3d ca 63 f9 be 77 1f 74 bf 47 38 a7 3d
       0.07173231 -0.48708946 -0.9536051 0.08165031
000350 57 5a d9 be 30 f4 a5 3e 01 47 64 bf 38 25 a2 3d
       -0.42451736 0.32412863 -0.89170843 0.07917255
000360 99 d5 8e bd 45 eb d6 bd c0 da 11 3f 4c 7a 95 3e
       -0.06974334 -0.10494093 0.5697441 0.29194868
000370 7f 42 d5 bf 5c 32 d7 bd 46 56 4d 3f 20 7e 25 c0
       -1.6660918 -0.10507652 0.8020977 -2.585823
000380 14 a2 24 bf 44 0f b0 bf d5 0d ed be 49 2b f9 bd
       -0.6430981 -1.3754659 -0.46299616 -0.12166459
000390 db 61 b2 bf 7e ce 76 bd 02 13 57 bf 35 53 26 be
       -1.3936113 -0.06025552 -0.8401338 -0.16242678
0003a0 06 b9 27 3f 6a d9 88 bf 79 a2 49 3d 01 11 9b 3d
       0.655167 -1.069135 0.04922721 0.075716026
0003b0 b1 bc f7 bd f2 05 df 3d 05 cf 0d c0 bb b7 86 3c
       -0.12096537 0.10889806 -2.2157605 0.016445031
0003c0 c5 fa b6 bf 5f e7 0e 3f 69 f9 cd 3f 03 48 c6 3e
       -1.4295279 0.55821794 1.6091739 0.38726816
0003d0 cd aa 24 3f 53 60 19 3f 5b bb 8f bd 13 ce 04 bd
       0.6432312 0.59912604 -0.07018157 -0.03242309
0003e0 b0 5b 31 3f 89 e6 7e bf 0a 23 0f c0 31 8b 81 3f
       0.6928053 -0.9957052 -2.2365136 1.0120603
0003f0 a9 9e 9e 3f 4f 53 95 3f 0b f3 39 3e ab 71 35 be
       1.2392169 1.1666049 0.1815912 -0.17719142

feature_extractor.module.1.module.1.0.bias f4 [128]
000000 84 8c fb bc 13 52 2d 3e 87 9d 0b 3f b3 69 57 bf
       -0.030706652 0.1692584 0.5453724 -0.8414566
000010 5e c1 62 3f 0b 23 fe bf e2 dd cc be 71 87 a2 3e
       0.88576305 -1.9854444 -0.40013033 0.3174396
000020 24 00 10 3f 8d 8c 81 be b8 f6 98 3d 3a 75 41 3c
       0.56250215 -0.25302544 0.07468933 0.011807734
000030 b8 94 2d be 97 55 9a be c2 75 03 3d 0b ba 02 c0
       -0.16951263 -0.30143425 0.032094724 -2.0426052
000040 38 58 f1 3e aa b0 d0 bf 61 2c bc bf f3 e5 98 bf
       0.47137618 -1.6303914 -1.4701043 -1.1945175
000050 e5 7c a1 bd 77 09 cd 3f 67 24 d1 bf f0 57 ad bf
       -0.0788515 1.6018513 -1.6339234 -1.3542461
000060 d2 0a 42 bf 7d 84 2e be 43 f4 a9 3f 40 d4 69 3d
       -0.7579776 -0.17042728 1.3277668 0.057087183
000070 b7 cb 73 3c 36 50 4c bf 6a e6 7c bf 38 9b 54 bf
       0.014880112 -0.7980989 -0.98789084 -0.83049345
000080 0e 58 25 bf b6 85 df bf 1c 55 0a bf e4 22 37 3f
       -0.64587486 -1.746268 -0.54036117 0.71537614
000090 72 aa 93 bd 1d 7e b4 3e f8 40 bb 3e a3 7a 66 bf
       -0.07210244 0.35252467 0.36573005 -0.9003088
0000a0 e4 90 cf bf d3 73 8b 3f 23 fb c7 be e8 f2 4c bf
       -1.6216092 1.0894722 -0.3905879 -0.80058146
0000b0 e1 69 bd bc d6 5f 98 3e bf 31 b5 3f 0c 5d ed bf
       -0.023121776 0.29760617 1.4155806 -1.8544021
0000c0 69 48 cd 3e 04 bb 0b c0 5a f8 d9 bf cf ad 6e bf
       0.40094307 -2.1832895 -1.7028916 -0.9323396
0000d0 78 6c 72 3f c6 1c 35 bf 6d 55 06 3f 53 19 37 3f
       0.9469676 -0.7074703 0.524741 0.71523017
0000e0 89 66 8a 3f 37 ab 17 bf 67 f8 d9 3e 31 97 51 3f
       1.0812541 -0.5924563 0.42572328 0.81871325
0000f0 d6 be 22 3f c0 b1 13 bf c7 5f d3 be 3a b3 1d c0
       0.6357244 -0.576931 -0.4128401 -2.4640641
000100 01 2a 88 be 4c 32 6c 3d fe 66 df 3f 13 3b 4a 3e
       -0.26594546 0.057665154 1.7453306 0.19749098
000110 1f 48 32 3e 36 f9 a2 bf 9d 02 71 bd 67 83 a6 bc
       0.17410325 -1.2732303 -0.058840383 -0.02032633
000120 61 6f 2c 3f 46 f7 fe be 10 f3 b6 bf 56 ae 84 bc
       0.6735745 -0.4979803 -1.4292927 -0.016196411
000130 b2 0d cc bf 41 37 ba be f8 a0 99 3f dc 9c 7b bf
       -1.594168 -0.3637028 1.2002249 -0.98286223
000140 d7 fe 83 bd f1 f2 b1 bf 34 0d e2 bf d8 44 83 3e
       -0.06445091 -1.3902265 -1.7660279 0.2563846
000150 7c 1c 89 be 99 ed a4 bd d4 3b 43 3f a9 63 5c 3c
       -0.26779544 -0.08053131 0.76263165 0.013451495
000160 16 50 9f 3e d4 39 66 3f d9 0c 01 c0 a1 29 3f 3d
       0.31115788 0.8993199 -2.0164092 0.04667056
000170 f7 a8 af 3e 5f 54 ec be b1 c4 59 3f 7c e4 00 c0
       0.34308597 -0.4615812 0.8506575 -2.0139456
000180 37 ae 25 be 9e 75 b6 bc c1 45 2f bf 28 67 37 3f
       -0.16179739 -0.022272881 -0.6846581 0.7164178
000190 fe d4 58 bf d8 9f f9 3d 0a e2 eb bf 6c c8 76 3d
       -0.847 0.12188691 -1.8428357 0.06024973
0001a0 86 d8 e6 bf 12 ed 78 bf e4 f5 bb bd 2b 5b b5 3f
       -1.8034828 -0.9723674 -0.09177759 1.4168447
0001b0 f3 3a 8c bf da 0b d7 be c5 25 76 3f 35 c6 01 bf
       -1.095549 -0.4200123 0.9615138 -0.50693065
0001c0 5f 85 ae 3e 1f 53 5d 3d f8 14 80 be c0 96 4e 3f
       0.3408613 0.05403435 -0.25015998 0.80698776
0001d0 5d c4 96 bf 24 93 c5 3f 11 00 91 bf d8 c4 dd be
       -1.1778675 1.5435529 -1.1328145 -0.43314242
0001e0 15 27 0d bf 8d 95 49 bf 7b 0c 5e bc a4 d3 7a bf
       -0.5513776 -0.7874382 -0.01355278 -0.9797919
0001f0 b0 fa f9 3e 71 13 eb 3e 3c 39 e6 3f df 4f 71 3e
       0.48824072 0.4591327 1.7986217 0.23565625

feature_extractor.module.1.module.1.2.weight f4 [128]
000000 79 5b 5c 40 06 a4 a5 3f e5 70 8f 3f fc 21 92 40
       3.443083 1.2940681 1.1206328 4.5666485
000010 59 ba 73 3f 2e 1c 62 3f aa 83 95 3f f9 5c 1c 40
       0.9520622 0.8832425 1.1680806 2.4431746
000020 9c ec 73 3f d5 61 df 3f da 12 c5 3f ee f4 1c 40
       0.9528291 1.7451731 1.5396378 2.4524493
000030 6b a7 06 40 c1 c4 02 40 15 30 7e 3f aa fe 32 3f
       2.1039684 2.043259 0.9929212 0.69919837
000040 8b 91 ed 3f 1b d4 b1 3f 9e 49 41 40 55 cf c6 3f
       1.8560041 1.3892854 3.0201182 1.5532023
000050 35 da fa 3f 68 88 1b 40 61 cf 79 3f 8e a6 96 3f
       1.9597842 2.4302006 0.9758206 1.1769578
000060 0a ef 8a 40 e2 37 4a 40 8e 7f e1 3f ce 8e 61 3f
       4.3416796 3.1596608 1.7617052 0.8810853
000070 4a 6d 3d 3f ed e4 d2 3f cf 61 54 3f 47 73 17 40
       0.73994887 1.6476113 0.82961744 2.366411
000080 9b a5 54 bf 4a e2 3f 3f 9b 2c c2 3e de 1c 8c 40
       -0.83065194 0.74954665 0.37924656 4.378524
000090 89 12 be 3f 8a dc 3c 40 37 62 e0 3f 18 54 75 3f
       1.4849406 2.9509606 1.7529973 0.9583144
0000a0 53 3d ad 3f f0 04 b9 3f b8 0d c1 3f 1c c1 6c 3f
       1.353434 1.4454632 1.5082312 0.9248216
0000b0 fc 2e aa 3f 43 e7 b3 3f 3a ff 0c 40 13 ef 94 3f
       1.3295588 1.405495 2.2030778 1.163546
0000c0 eb 0a 73 3f e4 19 03 3f 4d ef b3 3f 73 04 89 3f
       0.94938534 0.5121138 1.4057404 1.0704483
0000d0 90 7a a4 3f b5 44 52 bf 20 ba dd 3f c9 c7 7b 3f
       1.2849903 -0.8213609 1.7322426 0.9835172
0000e0 97 d4 29 40 63 ab 5a 3f 6e 07 39 40 0d 48 a2 3f
       2.6536005 0.85417765 2.8910785 1.2678238
0000f0 e2 84 11 40 3c 20 81 3f 04 ce 9c 3f cd f5 d5 3f
       2.2737355 1.0087962 1.2250371 1.6715637
000100 74 37 2c 40 59 4c 19 40 30 a8 d4 3f 06 fe 91 3e
       2.6908846 2.395285 1.6613827 0.28514117
000110 68 ed 0e 40 41 17 1b 40 2f 06 65 3f 41 40 e4 3f
       2.2332401 2.4232943 0.8946256 1.7832109
000120 19 cb 8d 3f 37 4d 4b 3f d5 35 13 3e ea cb 43 40
       1.1077605 0.79414696 0.14376004 3.059321
000130 0c 95 81 3f d3 74 c7 3f 3a 12 45 40 cc 2f ed 3f
       1.012361 1.5582527 3.0792375 1.8530211
000140 23 1e 1a 40 d6 30 20 3f 0e e9 f5 3e f7 b9 d2 3f
       2.4080894 0.6257452 0.4802937 1.6463002
000150 d9 b1 6c 40 0b 46 ed 3f e5 dc 4f 40 0e 96 ae 3f
       3.698355 1.8537 3.2478573 1.3639543
000160 af ef 13 40 c0 b5 22 40 37 1f 92 3f 6c 94 a6 3f
       2.3115041 2.5423431 1.1415776 1.3014045
000170 5e 01 c7 3f 1b 8d 71 3f 0a 4d 20 40 66 da 16 bc
       1.5547292 0.94355935 2.504702 -0.009207344
000180 1e 0a 65 40 58 d2 06 40 44 eb b6 3f 1f 34 96 3f
       3.5787425 2.1065884 1.4290547 1.1734656
000190 91 f1 49 40 13 90 f4 3f 15 5a 88 3f 33 fd 07 40
       3.155369 1.9106468 1.0652491 2.124829
0001a0 ad a0 21 3f 1b c5 0c 3f 77 83 d0 3f 5a 52 cb 3f
       0.63135797 0.5498826 1.629012 1.5884507
0001b0 0e 23 76 3f 7c e4 1c 40 7e f7 09 40 80 81 c7 3f
       0.9614724 2.4514456 2.1557307 1.5586395
0001c0 b8 eb 83 3f 69 5e 1f 40 b5 2d d2 3f 13 38 56 3f
       1.0306311 2.4901373 1.6420199 0.8367931
0001d0 0d c4 04 40 37 b5 b0 3f d4 2b 11 3f d5 3f 4f 40
       2.074466 1.3805302 0.567075 3.238271
0001e0 a6 84 e0 3f b9 a6 df 3f 64 ad 18 40 3e 69 c0 3e
       1.7540481 1.7472755 2.385583 0.37580293
0001f0 2b 9a 93 3f b9 22 85 3f f0 09 06 40 f6 8b ee 3f
       1.1531423 1.0401222 2.0943565 1.8636463
